…
        "dns_qclass_0",
        "dns_rcode_3",
        "dns_qtype_28",
        "service_dns",
        "dns_RA_F",
        "conn_state_RSTR",
        "service_ssl",
        "service_smb",
        "dns_qclass_1",
        "service_http"
    ],
    "onehot": [],
    "embed": [],
    "language": [],
    "bool": [
        "dns_qtype_12",
        "dns_rcode_2",
        "service_gssapi",
        "service_dce_rpc"
    ]
}


Training data for TabularNeuralNetTorchModel has: 466363 examples, 40 features (40 vector, 0 embedding)
Training on GPU
Neural network architecture:
EmbedNet(
  (main_block): Sequential(
    (0): BatchNorm1d(40, eps=1e-05, momentum=0.1, affine=True, track_running_stats=True)
    (1): Linear(in_features=40, out_features=128, bias=True)
    (2): ReLU()
    (3): BatchNorm1d(128, eps=1e-05, momentum=0.1, affine=True, track_running_stats=True)
    (4): Dropout(p=0.1, inplace=False)
    (5): Linear(in_features=128, out_features=128, bias=True)
    (6): ReLU()
    (7): Linear(in_features=128, out_features=2, bias=True)
  )
  (softmax): Softmax(dim=1)
)
Training tabular neural network for up to 50 epochs...
Epoch 1 (Update 1821).	Train loss: 0.1457, Val roc_auc: 0.9947, Best Epoch: 1
Epoch 2 (Update 3642).	Train loss: 0.0905, Val roc_auc: 0.9968, Best Epoch: 2
Epoch 3 (Update 5463).	Train loss: 0.0728, Val roc_auc: 0.9977, Best Epoch: 3
Epoch 4 (Update 7284).	Train loss: 0.0629, Val roc_auc: 0.9981, Best Epoch: 4
…
        "conn_state_RSTO",
        "http_version_1.1",
        "http_status_code_200",
        "http_version_-",
        "service_ftp",
        "http_status_code_0",
        "conn_state_RSTR",
        "service_ssl",
        "service_smb"
    ],
    "onehot": [],
    "embed": [],
    "language": [],
    "bool": [
        "dns_qtype_12",
        "dns_rcode_2",
        "service_gssapi",
        "service_dce_rpc"
    ]
}


Training data for TabularNeuralNetTorchModel has: 466363 examples, 40 features (40 vector, 0 embedding)
Training on GPU
Neural network architecture:
EmbedNet(
  (main_block): Sequential(
    (0): BatchNorm1d(40, eps=1e-05, momentum=0.1, affine=True, track_running_stats=True)
    (1): Linear(in_features=40, out_features=256, bias=True)
    (2): ReLU()
    (3): BatchNorm1d(256, eps=1e-05, momentum=0.1, affine=True, track_running_stats=True)
    (4): Dropout(p=0.4, inplace=False)
    (5): Linear(in_features=256, out_features=256, bias=True)
    (6): ReLU()
    (7): BatchNorm1d(256, eps=1e-05, momentum=0.1, affine=True, track_running_stats=True)
    (8): Dropout(p=0.4, inplace=False)
    (9): Linear(in_features=256, out_features=256, bias=True)
    (10): ReLU()
    (11): BatchNorm1d(256, eps=1e-05, momentum=0.1, affine=True, track_running_stats=True)
    (12): Dropout(p=0.4, inplace=False)
    (13): Linear(in_features=256, out_features=256, bias=True)
    (14): ReLU()
    (15): Linear(in_features=256, out_features=2, bias=True)
  )
  (softmax): Softmax(dim=1)
)
Training tabular neural network for up to 50 epochs...
Epoch 1 (Update 1821).	Train loss: 0.1298, Val roc_auc: 0.9945, Best Epoch: 1
Epoch 2 (Update 3642).	Train loss: 0.1008, Val roc_auc: 0.9963, Best Epoch: 2
Epoch 3 (Update 5463).	Train loss: 0.0901, Val roc_auc: 0.9949, Best Epoch: 2
Epoch 4 (Update 7284).	Train loss: 0.0807, Val roc_auc: 0.9949, Best Epoch: 2
…
        "dns_qclass_0",
        "dns_rcode_3",
        "dns_qtype_28",
        "service_dns",
        "dns_RA_F",
        "conn_state_RSTR",
        "service_ssl",
        "service_smb",
        "dns_qclass_1",
        "service_http"
    ],
    "onehot": [],
    "embed": [],
    "language": [],
    "bool": [
        "dns_qtype_12",
        "dns_rcode_2",
        "service_gssapi",
        "service_dce_rpc"
    ]
}


Training data for TabularNeuralNetTorchModel has: 466363 examples, 40 features (40 vector, 0 embedding)
Training on GPU
Neural network architecture:
EmbedNet(
  (main_block): Sequential(
    (0): BatchNorm1d(40, eps=1e-05, momentum=0.1, affine=True, track_running_stats=True)
    (1): Linear(in_features=40, out_features=256, bias=True)
    (2): ELU(alpha=1.0)
    (3): BatchNorm1d(256, eps=1e-05, momentum=0.1, affine=True, track_running_stats=True)
    (4): Dropout(p=0.1, inplace=False)
    (5): Linear(in_features=256, out_features=256, bias=True)
    (6): ELU(alpha=1.0)
    (7): Linear(in_features=256, out_features=2, bias=True)
  )
  (softmax): Softmax(dim=1)
)
Training tabular neural network for up to 50 epochs...
Epoch 1 (Update 1821).	Train loss: 0.1581, Val roc_auc: 0.9886, Best Epoch: 1
Epoch 2 (Update 3642).	Train loss: 0.1351, Val roc_auc: 0.9922, Best Epoch: 2
Epoch 3 (Update 5463).	Train loss: 0.13, Val roc_auc: 0.9924, Best Epoch: 3
Epoch 4 (Update 7284).	Train loss: 0.1269, Val roc_auc: 0.9919, Best Epoch: 3
…
        "dns_qclass_0",
        "dns_rcode_3",
        "dns_qtype_28",
        "service_dns",
        "dns_RA_F",
        "conn_state_RSTR",
        "service_ssl",
        "service_smb",
        "dns_qclass_1",
        "service_http"
    ],
    "onehot": [],
    "embed": [],
    "language": [],
    "bool": [
        "dns_qtype_12",
        "dns_rcode_2",
        "service_gssapi",
        "service_dce_rpc"
    ]
}


Training data for TabularNeuralNetTorchModel has: 466363 examples, 40 features (40 vector, 0 embedding)
Training on GPU
Neural network architecture:
EmbedNet(
  (main_block): Sequential(
    (0): BatchNorm1d(40, eps=1e-05, momentum=0.1, affine=True, track_running_stats=True)
    (1): Linear(in_features=40, out_features=128, bias=True)
    (2): ReLU()
    (3): BatchNorm1d(128, eps=1e-05, momentum=0.1, affine=True, track_running_stats=True)
    (4): Dropout(p=0.1, inplace=False)
    (5): Linear(in_features=128, out_features=128, bias=True)
    (6): ReLU()
    (7): BatchNorm1d(128, eps=1e-05, momentum=0.1, affine=True, track_running_stats=True)
    (8): Dropout(p=0.1, inplace=False)
    (9): Linear(in_features=128, out_features=128, bias=True)
    (10): ReLU()
    (11): Linear(in_features=128, out_features=2, bias=True)
  )
  (softmax): Softmax(dim=1)
)
Training tabular neural network for up to 50 epochs...
Epoch 1 (Update 1821).	Train loss: 0.1199, Val roc_auc: 0.9961, Best Epoch: 1
Epoch 2 (Update 3642).	Train loss: 0.092, Val roc_auc: 0.9961, Best Epoch: 2
Epoch 3 (Update 5463).	Train loss: 0.0739, Val roc_auc: 0.9949, Best Epoch: 2
Epoch 4 (Update 7284).	Train loss: 0.057, Val roc_auc: 0.9937, Best Epoch: 2
…
        "dns_qclass_0",
        "dns_rcode_3",
        "dns_qtype_28",
        "service_dns",
        "dns_RA_F",
        "conn_state_RSTR",
        "service_ssl",
        "service_smb",
        "dns_qclass_1",
        "service_http"
    ],
    "onehot": [],
    "embed": [],
    "language": [],
    "bool": [
        "dns_qtype_12",
        "dns_rcode_2",
        "service_gssapi",
        "service_dce_rpc"
    ]
}


Training data for TabularNeuralNetTorchModel has: 466363 examples, 40 features (40 vector, 0 embedding)
Training on GPU
Neural network architecture:
EmbedNet(
  (main_block): Sequential(
    (0): BatchNorm1d(40, eps=1e-05, momentum=0.1, affine=True, track_running_stats=True)
    (1): Linear(in_features=40, out_features=128, bias=True)
    (2): ELU(alpha=1.0)
    (3): BatchNorm1d(128, eps=1e-05, momentum=0.1, affine=True, track_running_stats=True)
    (4): Dropout(p=0.1, inplace=False)
    (5): Linear(in_features=128, out_features=128, bias=True)
    (6): ELU(alpha=1.0)
    (7): BatchNorm1d(128, eps=1e-05, momentum=0.1, affine=True, track_running_stats=True)
    (8): Dropout(p=0.1, inplace=False)
    (9): Linear(in_features=128, out_features=128, bias=True)
    (10): ELU(alpha=1.0)
    (11): BatchNorm1d(128, eps=1e-05, momentum=0.1, affine=True, track_running_stats=True)
    (12): Dropout(p=0.1, inplace=False)
    (13): Linear(in_features=128, out_features=128, bias=True)
    (14): ELU(alpha=1.0)
    (15): Linear(in_features=128, out_features=2, bias=True)
  )
  (softmax): Softmax(dim=1)
)
Training tabular neural network for up to 50 epochs...
Epoch 1 (Update 1821).	Train loss: 0.1246, Val roc_auc: 0.9967, Best Epoch: 1
Epoch 2 (Update 3642).	Train loss: 0.0745, Val roc_auc: 0.9976, Best Epoch: 2
Epoch 3 (Update 5463).	Train loss: 0.0549, Val roc_auc: 0.9983, Best Epoch: 3
Epoch 4 (Update 7284).	Train loss: 0.043, Val roc_auc: 0.9992, Best Epoch: 4
…
        "dns_qclass_0",
        "dns_rcode_3",
        "dns_qtype_28",
        "service_dns",
        "dns_RA_F",
        "conn_state_RSTR",
        "service_ssl",
        "service_smb",
        "dns_qclass_1",
        "service_http"
    ],
    "onehot": [],
    "embed": [],
    "language": [],
    "bool": [
        "dns_qtype_12",
        "dns_rcode_2",
        "service_gssapi",
        "service_dce_rpc"
    ]
}


Training data for TabularNeuralNetTorchModel has: 466363 examples, 40 features (40 vector, 0 embedding)
Training on GPU
Neural network architecture:
EmbedNet(
  (main_block): Sequential(
    (0): BatchNorm1d(40, eps=1e-05, momentum=0.1, affine=True, track_running_stats=True)
    (1): Linear(in_features=40, out_features=512, bias=True)
    (2): ReLU()
    (3): BatchNorm1d(512, eps=1e-05, momentum=0.1, affine=True, track_running_stats=True)
    (4): Dropout(p=0.4, inplace=False)
    (5): Linear(in_features=512, out_features=512, bias=True)
    (6): ReLU()
    (7): BatchNorm1d(512, eps=1e-05, momentum=0.1, affine=True, track_running_stats=True)
    (8): Dropout(p=0.4, inplace=False)
    (9): Linear(in_features=512, out_features=512, bias=True)
    (10): ReLU()
    (11): Linear(in_features=512, out_features=2, bias=True)
  )
  (softmax): Softmax(dim=1)
)
Training tabular neural network for up to 50 epochs...
Epoch 1 (Update 1821).	Train loss: 0.1295, Val roc_auc: 0.9948, Best Epoch: 1
Epoch 2 (Update 3642).	Train loss: 0.0787, Val roc_auc: 0.9966, Best Epoch: 2
Epoch 3 (Update 5463).	Train loss: 0.0625, Val roc_auc: 0.9985, Best Epoch: 3
Epoch 4 (Update 7284).	Train loss: 0.0526, Val roc_auc: 0.9989, Best Epoch: 4
…
        "dns_qclass_0",
        "dns_rcode_3",
        "dns_qtype_28",
        "service_dns",
        "dns_RA_F",
        "conn_state_RSTR",
        "service_ssl",
        "service_smb",
        "dns_qclass_1",
        "service_http"
    ],
    "onehot": [],
    "embed": [],
    "language": [],
    "bool": [
        "dns_qtype_12",
        "dns_rcode_2",
        "service_gssapi",
        "service_dce_rpc"
    ]
}


Training data for TabularNeuralNetTorchModel has: 466363 examples, 40 features (40 vector, 0 embedding)
Training on GPU
Neural network architecture:
EmbedNet(
  (main_block): Sequential(
    (0): BatchNorm1d(40, eps=1e-05, momentum=0.1, affine=True, track_running_stats=True)
    (1): Linear(in_features=40, out_features=512, bias=True)
    (2): ELU(alpha=1.0)
    (3): BatchNorm1d(512, eps=1e-05, momentum=0.1, affine=True, track_running_stats=True)
    (4): Dropout(p=0.0, inplace=False)
    (5): Linear(in_features=512, out_features=512, bias=True)
    (6): ELU(alpha=1.0)
    (7): BatchNorm1d(512, eps=1e-05, momentum=0.1, affine=True, track_running_stats=True)
    (8): Dropout(p=0.0, inplace=False)
    (9): Linear(in_features=512, out_features=512, bias=True)
    (10): ELU(alpha=1.0)
    (11): BatchNorm1d(512, eps=1e-05, momentum=0.1, affine=True, track_running_stats=True)
    (12): Dropout(p=0.0, inplace=False)
    (13): Linear(in_features=512, out_features=512, bias=True)
    (14): ELU(alpha=1.0)
    (15): Linear(in_features=512, out_features=2, bias=True)
  )
  (softmax): Softmax(dim=1)
)
Training tabular neural network for up to 50 epochs...
Epoch 1 (Update 1821).	Train loss: 0.1341, Val roc_auc: 0.9947, Best Epoch: 1
Epoch 2 (Update 3642).	Train loss: 0.0605, Val roc_auc: 0.9969, Best Epoch: 2
Epoch 3 (Update 5463).	Train loss: 0.0451, Val roc_auc: 0.9991, Best Epoch: 3
Epoch 4 (Update 7284).	Train loss: 0.0349, Val roc_auc: 0.9882, Best Epoch: 3
…
        "dns_qclass_0",
        "dns_rcode_3",
        "dns_qtype_28",
        "service_dns",
        "dns_RA_F",
        "conn_state_RSTR",
        "service_ssl",
        "service_smb",
        "dns_qclass_1",
        "service_http"
    ],
    "onehot": [],
    "embed": [],
    "language": [],
    "bool": [
        "dns_qtype_12",
        "dns_rcode_2",
        "service_gssapi",
        "service_dce_rpc"
    ]
}


Training data for TabularNeuralNetTorchModel has: 466363 examples, 40 features (40 vector, 0 embedding)
Training on GPU
Neural network architecture:
EmbedNet(
  (main_block): Sequential(
    (0): BatchNorm1d(40, eps=1e-05, momentum=0.1, affine=True, track_running_stats=True)
    (1): Linear(in_features=40, out_features=512, bias=True)
    (2): ReLU()
    (3): BatchNorm1d(512, eps=1e-05, momentum=0.1, affine=True, track_running_stats=True)
    (4): Dropout(p=0.3, inplace=False)
    (5): Linear(in_features=512, out_features=512, bias=True)
    (6): ReLU()
    (7): Linear(in_features=512, out_features=2, bias=True)
  )
  (softmax): Softmax(dim=1)
)
Training tabular neural network for up to 50 epochs...
Epoch 1 (Update 1821).	Train loss: 0.1398, Val roc_auc: 0.9948, Best Epoch: 1
Epoch 2 (Update 3642).	Train loss: 0.0912, Val roc_auc: 0.997, Best Epoch: 2
Epoch 3 (Update 5463).	Train loss: 0.0741, Val roc_auc: 0.9977, Best Epoch: 3
Epoch 4 (Update 7284).	Train loss: 0.0651, Val roc_auc: 0.9982, Best Epoch: 4
…
        "dns_qclass_0",
        "dns_rcode_3",
        "dns_qtype_28",
        "service_dns",
        "dns_RA_F",
        "conn_state_RSTR",
        "service_ssl",
        "service_smb",
        "dns_qclass_1",
        "service_http"
    ],
    "onehot": [],
    "embed": [],
    "language": [],
    "bool": [
        "dns_qtype_12",
        "dns_rcode_2",
        "service_gssapi",
        "service_dce_rpc"
    ]
}


Training data for TabularNeuralNetTorchModel has: 466363 examples, 40 features (40 vector, 0 embedding)
Training on GPU
Neural network architecture:
EmbedNet(
  (main_block): Sequential(
    (0): BatchNorm1d(40, eps=1e-05, momentum=0.1, affine=True, track_running_stats=True)
    (1): Linear(in_features=40, out_features=256, bias=True)
    (2): ELU(alpha=1.0)
    (3): BatchNorm1d(256, eps=1e-05, momentum=0.1, affine=True, track_running_stats=True)
    (4): Dropout(p=0.0, inplace=False)
    (5): Linear(in_features=256, out_features=256, bias=True)
    (6): ELU(alpha=1.0)
    (7): BatchNorm1d(256, eps=1e-05, momentum=0.1, affine=True, track_running_stats=True)
    (8): Dropout(p=0.0, inplace=False)
    (9): Linear(in_features=256, out_features=256, bias=True)
    (10): ELU(alpha=1.0)
    (11): Linear(in_features=256, out_features=2, bias=True)
  )
  (softmax): Softmax(dim=1)
)
Training tabular neural network for up to 50 epochs...
Epoch 1 (Update 1821).	Train loss: 0.1233, Val roc_auc: 0.9949, Best Epoch: 1
Epoch 2 (Update 3642).	Train loss: 0.0552, Val roc_auc: 0.9595, Best Epoch: 1
Epoch 3 (Update 5463).	Train loss: 0.0363, Val roc_auc: 0.9953, Best Epoch: 3
Epoch 4 (Update 7284).	Train loss: 0.0323, Val roc_auc: 0.9983, Best Epoch: 4
…
