…
        "proto_tcp",
        "service_dhcp",
        "service_http",
        "service_ssh",
        "service_ssl",
        "service_irc",
        "conn_state_REJ",
        "conn_state_RSTO",
        "conn_state_RSTOS0",
        "conn_state_RSTR",
        "conn_state_S1",
        "conn_state_S2",
        "conn_state_S3",
        "conn_state_SF",
        "conn_state_SH",
        "conn_state_SHR"
    ]
}


Training data for TabularNeuralNetTorchModel has: 6126034 examples, 30 features (30 vector, 0 embedding)
Training on GPU
Neural network architecture:
EmbedNet(
  (main_block): Sequential(
    (0): BatchNorm1d(30, eps=1e-05, momentum=0.1, affine=True, track_running_stats=True)
    (1): Linear(in_features=30, out_features=128, bias=True)
    (2): ReLU()
    (3): BatchNorm1d(128, eps=1e-05, momentum=0.1, affine=True, track_running_stats=True)
    (4): Dropout(p=0.1, inplace=False)
    (5): Linear(in_features=128, out_features=128, bias=True)
    (6): ReLU()
    (7): BatchNorm1d(128, eps=1e-05, momentum=0.1, affine=True, track_running_stats=True)
    (8): Dropout(p=0.1, inplace=False)
    (9): Linear(in_features=128, out_features=128, bias=True)
    (10): ReLU()
    (11): Linear(in_features=128, out_features=2, bias=True)
  )
  (softmax): Softmax(dim=1)
)
Training tabular neural network for up to 10 epochs...
Epoch 1 (Update 11964).	Train loss: 0.0558, Val roc_auc: 0.995, Best Epoch: 1
Epoch 2 (Update 23928).	Train loss: 0.0532, Val roc_auc: 0.9949, Best Epoch: 1
Epoch 3 (Update 35892).	Train loss: 0.0531, Val roc_auc: 0.9949, Best Epoch: 1
Epoch 4 (Update 47856).	Train loss: 0.053, Val roc_auc: 0.9947, Best Epoch: 1
…
        "proto_tcp",
        "service_dhcp",
        "service_http",
        "service_ssh",
        "service_ssl",
        "service_irc",
        "conn_state_REJ",
        "conn_state_RSTO",
        "conn_state_RSTOS0",
        "conn_state_RSTR",
        "conn_state_S1",
        "conn_state_S2",
        "conn_state_S3",
        "conn_state_SF",
        "conn_state_SH",
        "conn_state_SHR"
    ]
}


Training data for TabularNeuralNetTorchModel has: 6126034 examples, 30 features (30 vector, 0 embedding)
Training on GPU
Neural network architecture:
EmbedNet(
  (main_block): Sequential(
    (0): BatchNorm1d(30, eps=1e-05, momentum=0.1, affine=True, track_running_stats=True)
    (1): Linear(in_features=30, out_features=256, bias=True)
    (2): ReLU()
    (3): BatchNorm1d(256, eps=1e-05, momentum=0.1, affine=True, track_running_stats=True)
    (4): Dropout(p=0.4, inplace=False)
    (5): Linear(in_features=256, out_features=256, bias=True)
    (6): ReLU()
    (7): BatchNorm1d(256, eps=1e-05, momentum=0.1, affine=True, track_running_stats=True)
    (8): Dropout(p=0.4, inplace=False)
    (9): Linear(in_features=256, out_features=256, bias=True)
    (10): ReLU()
    (11): Linear(in_features=256, out_features=2, bias=True)
  )
  (softmax): Softmax(dim=1)
)
Training tabular neural network for up to 10 epochs...
Epoch 1 (Update 11964).	Train loss: 0.0558, Val roc_auc: 0.9949, Best Epoch: 1
Epoch 2 (Update 23928).	Train loss: 0.0542, Val roc_auc: 0.995, Best Epoch: 2
Epoch 3 (Update 35892).	Train loss: 0.0539, Val roc_auc: 0.9951, Best Epoch: 3
Epoch 4 (Update 47856).	Train loss: 0.0538, Val roc_auc: 0.9951, Best Epoch: 3
…
        "proto_tcp",
        "service_dhcp",
        "service_http",
        "service_ssh",
        "service_ssl",
        "service_irc",
        "conn_state_REJ",
        "conn_state_RSTO",
        "conn_state_RSTOS0",
        "conn_state_RSTR",
        "conn_state_S1",
        "conn_state_S2",
        "conn_state_S3",
        "conn_state_SF",
        "conn_state_SH",
        "conn_state_SHR"
    ]
}


Training data for TabularNeuralNetTorchModel has: 6126034 examples, 30 features (30 vector, 0 embedding)
Training on GPU
Neural network architecture:
EmbedNet(
  (main_block): Sequential(
    (0): BatchNorm1d(30, eps=1e-05, momentum=0.1, affine=True, track_running_stats=True)
    (1): Linear(in_features=30, out_features=128, bias=True)
    (2): ReLU()
    (3): BatchNorm1d(128, eps=1e-05, momentum=0.1, affine=True, track_running_stats=True)
    (4): Dropout(p=0.1, inplace=False)
    (5): Linear(in_features=128, out_features=128, bias=True)
    (6): ReLU()
    (7): BatchNorm1d(128, eps=1e-05, momentum=0.1, affine=True, track_running_stats=True)
    (8): Dropout(p=0.1, inplace=False)
    (9): Linear(in_features=128, out_features=128, bias=True)
    (10): ReLU()
    (11): BatchNorm1d(128, eps=1e-05, momentum=0.1, affine=True, track_running_stats=True)
    (12): Dropout(p=0.1, inplace=False)
    (13): Linear(in_features=128, out_features=128, bias=True)
    (14): ReLU()
    (15): Linear(in_features=128, out_features=2, bias=True)
  )
  (softmax): Softmax(dim=1)
)
Training tabular neural network for up to 10 epochs...
Epoch 1 (Update 11964).	Train loss: 0.0562, Val roc_auc: 0.9951, Best Epoch: 1
Epoch 2 (Update 23928).	Train loss: 0.0546, Val roc_auc: 0.9951, Best Epoch: 1
Epoch 3 (Update 35892).	Train loss: 0.0544, Val roc_auc: 0.9951, Best Epoch: 3
Epoch 4 (Update 47856).	Train loss: 0.0544, Val roc_auc: 0.995, Best Epoch: 3
…
        "proto_tcp",
        "service_dhcp",
        "service_http",
        "service_ssh",
        "service_ssl",
        "service_irc",
        "conn_state_REJ",
        "conn_state_RSTO",
        "conn_state_RSTOS0",
        "conn_state_RSTR",
        "conn_state_S1",
        "conn_state_S2",
        "conn_state_S3",
        "conn_state_SF",
        "conn_state_SH",
        "conn_state_SHR"
    ]
}


Training data for TabularNeuralNetTorchModel has: 6126034 examples, 30 features (30 vector, 0 embedding)
Training on GPU
Neural network architecture:
EmbedNet(
  (main_block): Sequential(
    (0): BatchNorm1d(30, eps=1e-05, momentum=0.1, affine=True, track_running_stats=True)
    (1): Linear(in_features=30, out_features=512, bias=True)
    (2): ReLU()
    (3): BatchNorm1d(512, eps=1e-05, momentum=0.1, affine=True, track_running_stats=True)
    (4): Dropout(p=0.4, inplace=False)
    (5): Linear(in_features=512, out_features=512, bias=True)
    (6): ReLU()
    (7): BatchNorm1d(512, eps=1e-05, momentum=0.1, affine=True, track_running_stats=True)
    (8): Dropout(p=0.4, inplace=False)
    (9): Linear(in_features=512, out_features=512, bias=True)
    (10): ReLU()
    (11): BatchNorm1d(512, eps=1e-05, momentum=0.1, affine=True, track_running_stats=True)
    (12): Dropout(p=0.4, inplace=False)
    (13): Linear(in_features=512, out_features=512, bias=True)
    (14): ReLU()
    (15): Linear(in_features=512, out_features=2, bias=True)
  )
  (softmax): Softmax(dim=1)
)
Training tabular neural network for up to 10 epochs...
Epoch 1 (Update 11964).	Train loss: 0.0552, Val roc_auc: 0.995, Best Epoch: 1
Epoch 2 (Update 23928).	Train loss: 0.0538, Val roc_auc: 0.995, Best Epoch: 2
Epoch 3 (Update 35892).	Train loss: 0.0536, Val roc_auc: 0.9952, Best Epoch: 3
Epoch 4 (Update 47856).	Train loss: 0.0536, Val roc_auc: 0.9951, Best Epoch: 3
…
        "proto_tcp",
        "service_dhcp",
        "service_http",
        "service_ssh",
        "service_ssl",
        "service_irc",
        "conn_state_REJ",
        "conn_state_RSTO",
        "conn_state_RSTOS0",
        "conn_state_RSTR",
        "conn_state_S1",
        "conn_state_S2",
        "conn_state_S3",
        "conn_state_SF",
        "conn_state_SH",
        "conn_state_SHR"
    ]
}


Training data for TabularNeuralNetTorchModel has: 6126034 examples, 30 features (30 vector, 0 embedding)
Training on GPU
Neural network architecture:
EmbedNet(
  (main_block): Sequential(
    (0): BatchNorm1d(30, eps=1e-05, momentum=0.1, affine=True, track_running_stats=True)
    (1): Linear(in_features=30, out_features=512, bias=True)
    (2): ELU(alpha=1.0)
    (3): BatchNorm1d(512, eps=1e-05, momentum=0.1, affine=True, track_running_stats=True)
    (4): Dropout(p=0.0, inplace=False)
    (5): Linear(in_features=512, out_features=512, bias=True)
    (6): ELU(alpha=1.0)
    (7): BatchNorm1d(512, eps=1e-05, momentum=0.1, affine=True, track_running_stats=True)
    (8): Dropout(p=0.0, inplace=False)
    (9): Linear(in_features=512, out_features=512, bias=True)
    (10): ELU(alpha=1.0)
    (11): Linear(in_features=512, out_features=2, bias=True)
  )
  (softmax): Softmax(dim=1)
)
Training tabular neural network for up to 10 epochs...
Epoch 1 (Update 11964).	Train loss: 0.062, Val roc_auc: 0.9951, Best Epoch: 1
Epoch 2 (Update 23928).	Train loss: 0.0576, Val roc_auc: 0.9949, Best Epoch: 1
Epoch 3 (Update 35892).	Train loss: 0.0588, Val roc_auc: 0.9951, Best Epoch: 3
Epoch 4 (Update 47856).	Train loss: 0.0573, Val roc_auc: 0.9949, Best Epoch: 3
…
        "proto_tcp",
        "service_dhcp",
        "service_http",
        "service_ssh",
        "service_ssl",
        "service_irc",
        "conn_state_REJ",
        "conn_state_RSTO",
        "conn_state_RSTOS0",
        "conn_state_RSTR",
        "conn_state_S1",
        "conn_state_S2",
        "conn_state_S3",
        "conn_state_SF",
        "conn_state_SH",
        "conn_state_SHR"
    ]
}


Training data for TabularNeuralNetTorchModel has: 6126034 examples, 30 features (30 vector, 0 embedding)
Training on GPU
Neural network architecture:
EmbedNet(
  (main_block): Sequential(
    (0): BatchNorm1d(30, eps=1e-05, momentum=0.1, affine=True, track_running_stats=True)
    (1): Linear(in_features=30, out_features=256, bias=True)
    (2): ReLU()
    (3): BatchNorm1d(256, eps=1e-05, momentum=0.1, affine=True, track_running_stats=True)
    (4): Dropout(p=0.3, inplace=False)
    (5): Linear(in_features=256, out_features=256, bias=True)
    (6): ReLU()
    (7): BatchNorm1d(256, eps=1e-05, momentum=0.1, affine=True, track_running_stats=True)
    (8): Dropout(p=0.3, inplace=False)
    (9): Linear(in_features=256, out_features=256, bias=True)
    (10): ReLU()
    (11): BatchNorm1d(256, eps=1e-05, momentum=0.1, affine=True, track_running_stats=True)
    (12): Dropout(p=0.3, inplace=False)
    (13): Linear(in_features=256, out_features=256, bias=True)
    (14): ReLU()
    (15): Linear(in_features=256, out_features=2, bias=True)
  )
  (softmax): Softmax(dim=1)
)
Training tabular neural network for up to 10 epochs...
Epoch 1 (Update 11964).	Train loss: 0.0584, Val roc_auc: 0.9948, Best Epoch: 1
Epoch 2 (Update 23928).	Train loss: 0.0552, Val roc_auc: 0.9948, Best Epoch: 2
Epoch 3 (Update 35892).	Train loss: 0.0547, Val roc_auc: 0.995, Best Epoch: 3
Epoch 4 (Update 47856).	Train loss: 0.0544, Val roc_auc: 0.9948, Best Epoch: 3
…
